models/tmodel.onnx (onnx, 958354 bytes, 46 tensors)

model_1/dense_5/MatMul/ReadVariableOp:0 f4 [192, 7]
0.022307739 0.0051376815 -0.07282382 0.057127547 -0.029866952 -0.018073192 0.0115466975 -0.0065759537
0.09969675 0.07851775 0.07968341 0.07019825 -0.008176561 -0.050421678 0.10955284 -0.028339269
0.13120483 0.095287845 0.10335666 0.082231835 0.05681558 -0.10532192 0.018705068 0.0005607075
-0.04492254 -0.0032883317 -0.012201254 -0.09132926 0.04330927 0.18545339 0.03781246 -0.04955198
0.06184728 0.0026944217 0.06081136 -0.08682296 0.004535277 0.059256688 0.021045415 0.078671865
0.00423638 0.0618407 -0.074247696 -0.101014495 -0.056978885 0.004906233 -0.046766132 0.050925847
-0.010844739 0.036556333 0.06926238 -0.026239753 0.09662318 -0.036291655 0.08685165 0.028262626
-0.04678286 -0.004794226 -0.07395147 -0.0160502 -0.0047213687 -0.07735117 0.0016983856 0.045445755
0.016161636 -0.05704356 0.023615269 0.06703519 0.04119894 -0.04280345 0.011625227 -0.014785363
0.06448966 0.073660545 0.08425172 0.00076001085 -0.031856176 -0.022334678 -0.13945185 -0.042300213
-0.12235127 0.05733404 -0.08266103 -0.06229736 0.08872412 -0.048523568 0.058362547 0.064254425
-0.012194686 -0.016492316 0.050654355 -0.06963364 0.070297405 0.013777587 0.0650338 0.06623238
-0.076890886 -0.056911413 0.019588858 0.07857388 -0.03365653 0.049434148 0.09996089 0.09508564
-0.028421506 -0.02474933 0.054963358 -0.068217546 0.04880446 0.0040762336 -0.049538936 -0.07530361
0.04023391 0.011610533 -0.047472984 0.07063726 -0.00085662387 0.04003595 -0.0055428306 -0.010553282
0.031062776 -0.0903727 -0.0014250259 0.041898552 -0.027927492 0.022419209 -0.0046071364 -0.036106344
-0.029898696 0.01767345 -0.023086546 0.06237153 -0.049019687 0.013847587 0.06219239 0.09102748
0.019502643 0.11180731 0.12221745 0.006203773 0.041332975 0.10320191 -0.0061198105 0.06990989
0.07268803 0.04176865 0.102088764 -0.1373857 -0.10602413 -0.09809845 -0.11033237 -0.004746084
0.0043386505 -0.050393995 0.0011574154 -0.048520934 0.040581297 0.049466323 0.036229935 -0.03558321
-0.08882713 -0.01756347 0.009923604 -0.08079384 -0.051459033 -0.0010792493 -0.0016127418 0.05898415
-0.041249324 -0.08823027 -0.13102092 -0.07426987 0.036938883 -0.07989172 -0.08630511 -0.07347037
0.029507477 0.04840311 -0.0035436552 0.06412878 -0.01031039 -0.048208326 -0.121312805 -0.0264802
-0.1030099 -0.033814926 -0.0014946245 -0.11230033 -0.03263754 0.06305209 0.10023923 0.016167777
0.110849805 0.12150244 0.11495503 -0.044665225 -0.05147383 -0.08155385 0.03622908 0.05816813
-0.040927157 0.03468354 0.0037915302 -0.009792972 -0.04320921 -0.11917024 -0.016049225 -0.07267255
-0.00860549 -0.010316737 0.028080072 -0.044596467 -0.05340563 -0.050474815 -0.02353649 0.058031876
0.037048057 -0.014333142 -0.017694432 -0.028594919 0.07776551 0.09979674 0.08582253 1.0901289e-05
0.07621004 0.0699408 0.042293835 -0.025561959 0.022747999 0.07570351 -0.07713603 0.0039895573
0.09218496 -0.04003456 0.08841057 0.07049337 0.1080452 0.07939683 -0.06452288 0.015886573
0.04363836 0.061834566 0.012076841 -0.042205203 0.042089574 0.06021917 0.023840727 -0.06017862
0.033408985 0.07689851 0.0251859 0.052324742 -0.023173243 0.03906267 0.010069706 0.057819042
00000000: b8be b63c ff59 a83b a824 95bd 93fe 693d
00000010: 8aab f4bc 3b0e 94bc 5c2e 3d3c 197b d7bb
00000020: cf2d cc3d eacd a03d 0e31 a33d 1ac4 8f3d
00000030: fcf6 05bc f686 4ebd 3d5d e03d c127 e8bc
00000040: 8f5a 063e 4626 c33d a8ac d33d 2a69 a83d
00000050: 74b7 683d 05b3 d7bd 5f3b 993c 72fc 123a
00000060: b300 38bd 0d81 57bb c5e7 47bc d60a bbbd
00000070: 1065 313d 7ee7 3d3e 3de1 1a3d 04f7 4abd
00000080: 9353 7d3d e594 303b 5515 793d 3cd0 b1bd
00000090: a99c 943b 24b7 723d 6f67 ac3c b71e a13d
000000a0: 55d1 8a3b ad4c 7d3d 2d0f 98bd b0e0 cebd
000000b0: b162 69bd 77c4 a03b d88d 3fbd 9f97 503d
000000c0: 22ae 31bc 18bc 153d 6fd9 8d3d c0f4 d6bc
000000d0: 60e2 c53d 8fa6 14bd 47df b13d 0687 e73c
000000e0: 629f 3fbd e218 9dbb de73 97bd b67b 83bc
000000f0: b6b5 9abb 4a6a 9ebd 5d9c de3a 5425 3a3d
00000100: 6865 843c 82a6 69bd cf74 c13c bf49 893d
00000110: 38c0 283d ac52 2fbd bc77 3e3c 4f3e 72bc
00000120: 2813 843d 57db 963d 2a8c ac3d 773b 473a
00000130: 9f7b 02bd 37f7 b6bc 77cc 0ebe fd42 2dbd
00000140: 4d93 fabd 19d7 6a3d 304a a9bd 842b 7fbd
00000150: feb4 b53d a6c0 46bd 910d 6f3d d397 833d
00000160: 38cc 47bc e51a 87bc f17a 4f3d 159c 8ebd
00000170: 16f8 8f3d 63bb 613c 7130 853d d8a4 873d
00000180: f878 9dbd f11b 69bd d078 a03c 58eb a03d
00000190: 6edb 09bd 767b 4a3d 4cb8 cc3d 43bc c23d
000001a0: 38d4 e8bc 1bbf cabc 4221 613d a4b5 8bbd
000001b0: 2fe7 473d ed91 853b 57e9 4abd c738 9abd
000001c0: 50cc 243d 1b3a 3e3c 0873 42bd 45aa 903d
000001d0: 0e8f 60ba bcfc 233d a2a0 b5bb ace7 2cbc
000001e0: 5d77 fe3c 5215 b9bd efc7 baba d19d 2b3d
000001f0: 32c8 e4bc 7da8 b73c 76f7 96bb 3fe4 13bd
00000200: 1cee f4bc e9c7 903c ff1f bdbc 4a79 7f3d
00000210: dec8 48bd fde0 623c 73bd 7e3d 9e6c ba3d
00000220: 02c4 9f3c 3bfb e43d 244d fa3d 0549 cb3b
00000230: c44c 293d 865b d33d b188 c8bb eb2c 8f3d
00000240: 76dd 943d 9b15 2b3d ea13 d13d d6ae 0cbe
00000250: 2e23 d9bd d7e7 c8bd f0f5 e1bd 0a85 9bbb
00000260: 3d2b 8e3b ef69 4ebd 6bb4 973a e3bd 46bd
00000270: 9338 263d 339d 4a3d d765 143d b3bf 11bd
00000280: 00eb b5bd 44e1 8fbc 9d96 223c 3e77 a5bd
00000290: b5c6 52bd 9975 8dba a362 d3ba 5d99 713d
000002a0: 0df5 28bd 12b2 b4bd 592a 06be cd1a 98bd
000002b0: 3a4d 173d 459e a3bd bcc0 b0bd a277 96bd
000002c0: aab9 f13c 5742 463d ab3c 68bb f355 833d
000002d0: e9ec 28bc 1876 45bd d972 f8bd 01ed d8bc
000002e0: dbf6 d2bd 8581 0abd 47e7 c3ba b7fd e5bd
000002f0: f1ae 05bd 7421 813d 3a4a cd3d 4972 843c
00000300: 3905 e33d 45d6 f83d 8b6d eb3d e2f2 36bd
00000310: 39d6 52bd b405 a7bd f264 143d b541 6e3d
00000320: 3ca3 27bd 5410 0e3d 527b 783b b472 20bc
00000330: 24fc 30bd 870f f4bd aa79 83bc 59d5 94bd
00000340: 0bfe 0cbc 8807 29bc 2e08 e63c c9aa 36bd
00000350: ddbf 5abd aebe 4ebd 99cf c0bc d5b2 6d3d
00000360: b4bf 173d 8ed5 6abc eaf3 90bc e43f eabc
00000370: 8643 9f3d 3c62 cc3d b9c3 af3d aee4 3637
00000380: 0214 9c3d 1f3d 8f3d 4d3c 2d3d 5067 d1bc
00000390: 035a ba3c 710a 9b3d 7ff9 9dbd d5ba 823b
000003a0: 78cb bc3d 47fb 23bd 9a10 b53d d45e 903d
000003b0: cd46 dd3d ce9a a23d 9224 84bd 8f24 823c
000003c0: 23be 323d 3e46 7d3d f1dd 453c 5ddf 2cbd
000003d0: 1e66 2c3d 60a8 763d a14d c33c db7d 76bd
000003e0: dcd7 083d f77c 9d3d a952 ce3c 7852 563d
000003f0: d0d5 bdbc 2e00 203d 68fb 243c a9d3 6c3d

model_1/dense_5/BiasAdd/ReadVariableOp:0 f4 [7]
0.15149133 -0.09270133 0.01493384 -0.07745015 -0.15424392 -0.11668983 0.10516488
00000000: 8b20 1b3e 32da bdbd 11ad 743c 2f9e 9ebd
00000010: 1ef2 1dbe 14fb eebd af60 d73d

model_1/dense_4/MatMul/ReadVariableOp:0 f4 [384, 192]
3.3149536e-05 2.0562562e-05 -0.000538176 1.21531275e-05 0.0003241977 -3.8561953e-05 0.0001570606 1.9244695e-05
0.00017219105 -1.9912237e-05 -0.00028646347 1.3148199e-05 0.00044372297 0.0002308191 -0.00019596383 -0.00014966213
7.353175e-05 0.0001205727 -0.00019362457 0.00016967994 -0.0001579065 -6.3936095e-06 0.00040750077 -6.6871944e-05
4.3612235e-05 0.00025184752 0.0002055033 -0.0003653364 0.0005119921 0.00017829811 -0.00019449866 9.2911934e-05
0.00024951604 -2.3321409e-05 0.00017109932 5.21643e-05 0.00032813987 -0.00023163606 1.913229e-05 -8.483377e-06
0.0002623242 -7.019537e-05 6.226784e-05 -0.00019747976 2.9415718e-05 0.00018139588 -0.00010334284 -0.00025244761
-0.00024906915 -0.00011574882 -0.00063756853 -5.9490696e-05 0.00021027385 0.00021700909 -0.00014335805 -0.00025007757
-0.00033307454 9.151514e-05 -8.1228485e-05 -1.4064277e-05 0.00013883895 0.00027418346 0.00027380246 0.00027781443
-0.00028180575 -0.00012917427 -6.345345e-05 -1.9186842e-05 0.00038086058 0.0011138195 -5.5813885e-05 3.5550358e-05
-5.2384596e-05 9.980836e-05 7.4729054e-05 6.659137e-05 0.00013055027 -2.3114091e-05 0.00015907755 8.9717025e-05
-0.00048340193 -9.349033e-05 -0.00012568576 -0.00024264619 -0.00014550088 0.00032187652 0.00030456373 -0.0002943918
0.00059595396 -8.108169e-05 -0.00013312408 -0.00021669235 -0.00044213957 0.0001940922 -0.00017217713 0.00043575448
7.722343e-05 -0.00017871182 -0.00056996493 -7.118013e-06 -0.000429795 0.00017138605 0.00014511959 -4.9679376e-05
0.00028733027 -0.00022672166 -5.3542975e-05 4.2016316e-05 6.056967e-05 -3.285364e-05 -0.00020932624 0.00048343968
-0.00039278754 -0.00025136967 -0.00031315337 8.0184254e-05 0.0001192397 -0.00063428696 1.5764263e-06 0.00017285894
0.00032439092 3.181149e-05 -7.3676725e-05 -2.766525e-05 -3.9814393e-05 -0.00030512037 -0.00028969895 0.00011781304
0.00013173636 -5.0748888e-05 0.00012432685 0.0002720543 5.6330566e-05 -0.00031476383 0.00012225876 0.00019345044
0.00030653397 2.4604236e-05 -0.00011990822 7.029219e-05 0.00020581322 0.00013845149 -0.00015492318 0.00034599192
0.00016812645 0.0003820424 -7.72315e-05 0.00015463312 -0.00020834597 -2.502692e-05 -9.631226e-05 -0.00012297115
-0.00030587194 -0.00017335925 -9.9205296e-05 -0.0009218524 -3.4867324e-05 -6.472084e-05 -0.000110473666 -0.00023276
-0.000371265 0.00016588767 0.00019944049 0.00013032371 9.7564895e-05 -0.000125403 9.168445e-06 -0.00014364657
-7.282131e-05 0.00019787106 0.00012417618 -0.00011263457 -0.00021854982 -0.00010257344 -0.00040478108 3.1443644e-05
-8.131208e-06 0.00021728898 9.313459e-05 -2.9895486e-05 -0.00010767459 -6.60819e-05 9.654382e-05 0.00010569657
-6.165716e-05 -6.5501314e-05 -0.0001346921 -2.0255775e-05 -6.251535e-05 -5.1793482e-05 -0.00029891357 -0.00021341644
4.6967886e-18 -8.701897e-18 -3.0844237e-18 -1.1004482e-17 -2.090233e-17 1.7365902e-18 -1.3103461e-17 -4.2566727e-18
-2.7075148e-18 -3.9002042e-19 3.4627745e-20 -3.0582968e-18 2.629275e-18 -1.4556758e-17 -3.2854872e-18 -2.8563006e-18
-9.772546e-19 -3.816091e-18 3.4291508e-18 -3.478509e-18 1.20766765e-17 -4.5777883e-18 -6.7959236e-18 7.2018406e-18
-1.2883099e-17 -7.879692e-18 -5.312976e-18 -3.0940614e-18 9.066538e-18 -5.161919e-19 5.336361e-19 2.6704782e-19
-6.2327224e-18 -6.7529677e-18 -7.947022e-19 -2.2955569e-18 -1.2302441e-17 -6.2108066e-18 -2.9976901e-18 -2.2705649e-18
-6.2519837e-18 -1.4286265e-18 -7.854765e-18 -5.1425666e-18 1.2484005e-17 -6.272252e-18 3.0636702e-21 9.534535e-19
2.8062477e-18 -2.9761888e-18 1.193787e-18 -8.451599e-18 7.955274e-18 -4.8890212e-18 -1.1817111e-17 -1.7191794e-17
-2.3221079e-17 -1.5384046e-18 -7.3611733e-19 7.954255e-18 -1.0628241e-17 -3.3538528e-18 1.3766909e-17 -8.6952324e-18
00000000: 0b0a 0b38 c47d ac37 6114 0dba 49e5 4b37
00000010: 14f9 a939 95bd 21b8 a2b0 2439 ab6f a137
00000020: 2f8e 3439 3409 a7b7 7a30 96b9 1697 5c37
00000030: 7da3 e839 0808 7239 a47b 4db9 9fee 1cb9
00000040: 0f35 9a38 fadb fc38 b307 4bb9 1dec 3139
00000050: b493 25b9 b088 d6b6 d4a5 d539 9a3d 8cb8
00000060: 48ec 3638 670a 8439 5f7c 5739 9f8a bfb9
00000070: 3537 063a 89f5 3a39 56f2 4bb9 b7d9 c238
00000080: 7ad1 8239 58a2 c3b7 2069 3339 feca 5a38
00000090: 300a ac39 55e3 72b9 487e a037 d453 0eb7
000000a0: 8f88 8939 da35 93b8 cb95 8238 9212 4fb9
000000b0: c6c1 f637 1635 3e39 c4b9 d8b8 f25a 84b9
000000c0: 7f95 82b9 2dbe f2b8 8022 27ba a685 79b8
000000d0: f57c 5c39 ef8c 6339 6252 16b9 d81c 83b9
000000e0: 82a0 aeb9 d1eb bf38 3659 aab8 9cf5 6bb7
000000f0: 4c95 1139 48c0 8f39 258d 8f39 9fa7 9139
00000100: 54bf 93b9 f472 07b9 5012 85b8 6ef3 a0b7
00000110: 3eae c739 95fd 913a b419 6ab8 e81b 1538
00000120: 88b7 5bb8 3550 d138 dbb7 9c38 f8a6 8b38
00000130: 52e4 0839 22e5 c1b7 0ece 2639 7626 bc38
00000140: 1c71 fdb9 3d10 c4b8 84ca 03b9 d76e 7eb9
00000150: 9891 18b9 89c1 a839 daad 9f39 9958 9ab9
00000160: cb39 1c3a 670a aab8 3997 0bb9 e937 63b9
00000170: f8ce e7b9 3a85 4b39 728a 34b9 fa75 e439
00000180: 03f3 a138 9764 3bb9 b369 15ba 44d7 eeb6
00000190: 1c56 e1b9 18b6 3339 3e2b 1839 d35e 50b8
000001a0: d1a4 9639 22bc 6db9 5593 60b8 ad3a 3038
000001b0: 300c 7e38 54cc 09b8 967e 5bb9 2d76 fd39
000001c0: 0def cdb9 44ca 83b9 bc2e a4b9 9828 a838
000001d0: 5410 fa38 4746 26ba 9895 d335 7841 3539
000001e0: 0313 aa39 546d 0538 e482 9ab8 ac12 e8b7
000001f0: 61fe 26b8 90f8 9fb9 bce2 97b9 6512 f738
00000200: b622 0a39 34db 54b8 bc5d 0239 83a2 8e39
00000210: 7c44 6c38 e306 a5b9 9632 0039 f5d8 4a39
00000220: 4bb6 a039 3265 ce37 3c77 fbb8 d569 9338
00000230: 91cf 5739 4a2d 1139 e072 22b9 4066 b539
00000240: 1a4b 3039 dd4c c839 59f7 a1b8 0325 2239
00000250: 7277 5ab9 e7f0 d1b7 40fb c9b8 d1f1 00b9
00000260: 705d a0b9 c5c7 35b9 700c d0b8 78a8 71ba
00000270: 813e 12b8 bdba 87b8 19ae e7b8 0911 74b9
00000280: 58a6 c2b9 22f2 2d39 e620 5139 81a7 0839
00000290: c19b cc38 9d7e 03b9 2cd2 1937 d59f 16b9
000002a0: a5b7 98b8 9c7b 4f39 4a35 0239 3936 ecb8
000002b0: 852a 65b9 b21c d7b8 cc38 d4b9 5be2 0338
000002c0: 466b 08b7 11d8 6339 4151 c338 11c8 fab7
000002d0: 5bcf e1b8 7395 8ab8 9277 ca38 6aa9 dd38
000002e0: f04d 81b8 c05d 89b8 233c 0db9 f2ea a9b7
000002f0: ac1a 83b8 d43c 59b8 80b7 9cb9 8ac8 5fb9
00000300: ea47 ad22 8c85 20a3 1e97 63a2 32ff 4aa3
00000310: 3bca c0a3 4323 0022 58b7 71a3 230b 9da2
00000320: 82c7 47a2 383a e6a0 6086 231f 98a9 61a2
00000330: 9a01 4222 2c43 86a3 196d 72a2 fec1 52a2
00000340: a337 90a1 f6c9 8ca2 d406 7d22 9755 80a2
00000350: 7ec6 5e23 fde3 a8a2 afb9 faa2 bbd9 0423
00000360: b7a6 6da3 cb5a 11a3 a403 c4a2 2b4d 64a2
00000370: 843f 2723 5b5a 18a1 6780 1d21 20a3 9d20
00000380: 66f2 e5a2 fa23 f9a2 008e 6aa1 d861 29a2
00000390: a3f0 62a3 6923 e5a2 c430 5da2 c289 27a2
000003a0: 51a8 e6a2 fcd3 d2a1 14e5 10a3 2bba bda2
000003b0: 0c4a 6623 bf67 e7a2 007c 671d 74b4 8c21
000003c0: 8510 4f22 9e9a 5ba2 ff2b b021 8ce7 1ba3
000003d0: b8bf 1223 805f b4a2 bbfc 59a3 fa90 9ea3
000003e0: 392d d6a3 4807 e3a1 7443 59a1 e8ba 1223
000003f0: 730e 44a3 7d78 77a2 64f4 7d23 1366 20a3

model_1/dense_4/BiasAdd/ReadVariableOp:0 f4 [192]
0.02450097 0.09040491 -0.04924431 0.06674339 -0.058164306 0.015598052 -0.005528038 -0.13907191
0.06197647 0.06326029 0.033972003 -0.15989128 -0.09486104 0.011255797 -0.0037328643 -0.046602894
-0.0027292508 -0.0005381827 -0.006461137 0.03677776 -0.03781003 0.007084489 0.08944347 -0.06451904
-0.004864671 0.03875194 0.044196546 0.006449645 -0.089259796 0.052939124 0.0820529 -0.05167461
0.084293924 0.059344195 0.058886 0.048625596 -0.002156445 -0.051388815 0.0003258635 0.04384115
0.060386878 -0.07196686 0.091578126 -0.056143288 -0.04792006 0.044066772 -0.019812344 -0.08028847
0.032654013 0.026623083 -0.07133778 0.025151622 -0.095734 0.06539866 0.011756976 -0.045589592
0.01963984 -0.023874737 -0.07261398 -0.001725083 0.12751347 -0.0032226937 -0.046486966 0.057125345
-0.012262023 -0.05319635 0.009388668 -0.020911839 0.034486048 -0.05068518 0.038618904 -0.07010472
-0.0076370696 0.026961043 0.06880118 0.05272992 0.112001725 0.04581729 0.07157 0.052415073
-0.019565923 -0.21700478 0.07283728 -0.0020141318 0.020431649 0.0011509964 0.046362504 0.07895765
0.049259238 -0.0068137394 0.08304597 0.0042917933 0.0486528 0.07928293 -0.00044706924 0.002889018
0.052423336 0.045537632 -0.040906373 0.003043223 -0.015385376 0.032928642 0.055413883 0.04832037
-0.057936043 0.07298516 0.08648615 0.041404586 0.079510756 0.066317365 0.043185897 0.004117066
-0.082254566 -0.089992695 -0.015232048 -0.12171419 -0.012323552 0.06336921 0.062101986 -0.047827646
0.08893066 0.06804116 0.07682675 0.062161192 -0.023505846 -0.012978638 -0.035557937 0.02570825
0.067440726 0.03545067 0.054385718 -0.0031832494 -0.072826125 0.03932731 0.08578727 -0.010327747
0.047766134 0.03741523 -0.10878251 -0.04234144 0.024624966 0.025296774 0.035493366 0.0726871
0.071894735 -0.038558014 0.038638636 -0.008329228 -0.033224657 -0.039128356 0.0060477504 0.06546169
-0.07217593 0.06800616 -0.034373585 -0.013999898 -0.034232616 -0.07334155 0.03741986 0.012107197
-0.012467195 -0.085372396 0.0795329 0.07029242 0.041245475 0.026783155 0.0330715 0.026523858
0.12739477 0.13011792 0.07035912 0.022580707 -0.09733101 0.06725229 0.060421918 0.01968611
0.029891908 -0.031898398 0.11656247 -0.13544543 -0.024564482 0.076906025 0.05756979 0.021105623
-0.022471396 -0.001452535 -0.076286465 0.009832871 0.046291187 0.08738792 0.045242768 -0.08272327
00000000: 42b6 c83c 3626 b93d 67b4 49bd c2b0 883d
00000010: b23d 6ebd f98e 7f3c 8b24 b5bb de68 0ebe
00000020: 0adb 7d3d 9c8e 813d 3a26 0b3d 8aba 23be
00000030: 8146 c2bd 3c6a 383c 12a3 74bb ade2 3ebd
00000040: 3bdd 32bb d414 0dba f2b7 d3bb 47a4 163d
00000050: b1de 1abd 0025 e83b 232e b73d 8f22 84bd
00000060: d167 9fbb 5bba 1e3d 7007 353d 8b57 d33b
00000070: d7cd b6bd b2d6 583d 5a0b a83d c1a8 53bd
00000080: 4ba2 ac3d e612 733d 7232 713d a22b 473d
00000090: 2553 0dbb 147d 52bd a9d8 aa39 c792 333d
000000a0: 3b58 773d 5c63 93bd 508d bb3d 81f6 65bd
000000b0: d347 44bd 5c7f 343d 7f4d a2bc 486e a4bd
000000c0: 37c0 053d a718 da3c 8b19 92bd c60a ce3c
000000d0: 3010 c4bd bcef 853d 55a0 403c 27bc 3abd
000000e0: bbe3 a03c f494 c3bc a3b6 94bd 2e1c e2ba
000000f0: e492 023e d433 53bb 1e69 3ebd 44fc 693d
00000100: a7e6 48bc 6ae4 59bd eed2 193c 4e4f abbc
00000110: 3e41 0d3d 439b 4fbd db2e 1e3d 1093 8fbd
00000120: 6240 fabb 68dd dc3c a2e7 8c3d 54fb 573d
00000130: 2961 e53d e9aa 3b3d 4b93 923d 30b1 563d
00000140: b748 a0bc 8036 5ebe b62b 953d 86ff 03bb
00000150: 4660 a73c 08dd 963a 9ce6 3d3d 8cb4 a13d
00000160: 0ec4 493d ca45 dfbb 0114 aa3d 2ca2 8c3b
00000170: 2948 473d 175f a23d 9e64 eab9 ae55 3d3b
00000180: dab9 563d ab85 3a3d 718d 27bd cf70 473b
00000190: f212 7cbc 2fe0 063d abf9 623d 95eb 453d
000001a0: 584e 6dbd 3e79 953d a71f b13d db97 293d
000001b0: 89d6 a23d 66d1 873d b2e3 303d 74e8 863b
000001c0: 1575 a8bd 174e b8bd d78f 79bc 4a45 f9bd
000001d0: b9e8 49bc b7c7 813d a75e 7e3d ece6 43bd
000001e0: 4721 b63d 2a59 8b3d 5857 9d3d bc9c 7e3d
000001f0: 558f c0bc 5aa4 54bc 33a5 11bd 1c9a d23c
00000200: 5d1e 8a3d b934 113d 8fc3 5e3d 109e 50bb
00000210: dd25 95bd ac15 213d 3cb1 af3d b635 29bc
00000220: 6ca6 433d b640 193d 5dc9 debd 386e 2dbd
00000230: 4cba c93c 2e3b cf3c 7e61 113d f9dc 943d
00000240: 8c3d 933d 02ef 1dbd 8c43 1e3d 5077 08bc
00000250: 9416 08bd 0e45 20bd 352c c63b c710 863d
00000260: f9d0 93bd d046 8b3d 51cb 0cbd d45f 65bc
00000270: 8037 0cbd 1834 96bd 9145 193d 445d 463c
00000280: 3543 4cbc b9d7 aebd 25e2 a23d 79f5 8f3d
00000290: 04f1 283d 5968 db3c fb75 073d 9048 d93c
000002a0: c673 023e a23d 053e 7118 903d 2dfb b83c
000002b0: 7b55 c7bd 92bb 893d f97c 773d c444 a13c
000002c0: e0df f43c e5a7 02bd 4eb8 ee3d 35b2 0abe
000002d0: 743b c9bc e880 9d3d 4dce 6b3d b3e5 ac3c
000002e0: ef15 b8bc fd62 beba 143c 9cbd 0d1a 213c
000002f0: d49b 3d3d 70f8 b23d 7b50 393d d16a a9bd

model_1/dense_3/MatMul/ReadVariableOp:0 f4 [224, 384]
-1.5154787e-11 1.1933024e-34 -0.011490729 0.0036514427 0.006517307 -0.0015388082 0.0010386521 -0.00010052129
-0.008520962 -1.3469802e-06 0.00016258955 0.022129642 -0.0007347438 -1.269065e-06 0.00368233 -0.015480832
0.024661196 0.002566879 -3.0540608e-07 1.0631784e-05 -0.0056915707 0.00024603057 4.343798e-05 5.15932e-12
-0.011401262 -0.012094338 0.0016815681 1.3847775e-09 -3.5011846e-05 0.001131506 -0.020246152 0.0009411487
0.011428014 -3.2924967e-05 -1.928661e-06 1.5450213e-33 0.013973406 -0.03153968 9.24297e-06 0.015656654
-9.3902685e-08 5.3371696e-07 -0.03140517 -9.652849e-13 0.019693913 0.009594107 -1.0761064e-06 0.008954422
-0.0033201887 0.009527608 -0.0005232853 -9.290862e-05 -0.0007851705 -8.615297e-09 -9.108374e-05 -0.0037227757
-7.096837e-08 -9.1065895e-06 -0.0011699179 -4.685508e-05 0.033429332 0.0032972617 -4.824709e-06 2.1311423e-34
0.0004532484 -0.019587997 -0.00048116545 0.012896661 1.7049291e-05 -0.00065288565 0.0037726776 2.8198097e-09
-8.68298e-05 0.012406703 -3.5437531e-15 0.010073951 -1.39910865e-08 0.010762514 -4.6475558e-05 -0.005793156
-0.022949103 0.0049498687 0.010163569 -8.3444575e-06 -7.448923e-05 7.0781254e-12 0.01696906 -8.8866145e-06
7.7550436e-07 7.5652025e-08 0.001248935 -3.5845145e-09 0.005810483 0.0021431153 5.066159e-09 0.015736267
-7.042506e-06 5.5227996e-05 2.0016624e-09 -0.0005011673 0.0017246668 9.504197e-08 -5.713022e-13 -0.032594357
-2.658805e-07 0.0030550389 0.00019527217 0.00061758806 -0.009003694 -0.027543774 1.5572214e-33 -2.3857983e-06
-0.00011185866 -3.3079284e-10 1.1859408e-34 0.02305521 -3.6498715e-09 0.016551223 2.632452e-06 -0.00399849
1.0076511e-33 -5.7081667e-08 -0.0007538809 -0.0015664281 0.0022978215 1.1846402e-09 0.004636895 -1.9051893e-05
-5.2413613e-34 0.0018021609 0.00045279966 -5.4302895e-08 0.013283185 -1.3632704e-09 -0.0009932587 -0.005416913
-6.349481e-07 0.00020672216 -7.17147e-05 -0.0006921346 7.53845e-06 0.0008380349 -1.721709e-05 0.009847195
1.412555e-13 -7.647103e-15 -0.0014799401 7.612054e-11 -2.9683995e-11 -0.044563312 0.0025238842 -2.8490333e-34
5.5585397e-06 -0.0014695353 -0.0041260943 0.018844567 -5.3002447e-07 -8.679675e-08 -4.201026e-05 -1.2560723e-05
-3.125589e-08 1.4248827e-09 -0.0005454027 -0.00032402217 -0.0011353256 0.0083102025 -1.7824221e-33 -0.0005480505
1.8820503e-14 -4.995313e-05 0.016996194 -2.5482838e-12 -4.561112e-08 -3.1774555e-06 -0.008025761 1.0400765e-33
0.014670676 1.9568432e-22 0.000106730826 0.017622871 -2.3603877e-33 -0.0009113327 -0.0017426728 4.1722313e-05
-0.00076304696 -4.524063e-13 0.009144429 -1.5897271e-08 -0.00029145245 -0.0004817635 2.9138241e-06 -0.002101064
0.0031054867 0.012238277 0.003083552 0.0010800196 2.4529575e-13 -0.001044495 0.0061582034 4.4180993e-06
-2.456755e-11 -6.0850594e-05 0.0199267 -7.1222564e-07 -0.001032512 9.055591e-34 -1.0875458e-06 -9.3868155e-05
-3.9197267e-15 -0.0008109807 -0.011865532 -0.0032724557 0.0009997487 3.4762587e-10 -8.885276e-08 -0.0005431166
-0.0015468362 -0.010902828 -1.3043061e-08 0.0026092054 1.5177041e-33 -4.538415e-05 0.015525546 4.7055488e-05
-0.0002452708 -0.007358953 -0.0003031271 -7.0182073e-34 0.005463352 0.016977819 -0.0054626246 0.016952325
-4.4121283e-30 -9.679209e-07 0.009993737 -5.208274e-06 -0.044733442 0.00447137 9.8404195e-34 -0.002814025
2.1883802e-34 -8.620881e-10 -0.01455936 0.023940666 1.6583268e-06 -5.997181e-05 -7.671723e-19 -6.684148e-17
-2.1199697e-15 3.859406e-33 -7.044213e-08 2.3089285e-22 -5.7791407e-05 0.016583653 -1.936316e-05 1.3680142e-22
00000000: 8c4d 85ad fa9d 1e07 9c43 3cbc 0b4d 6f3b
00000010: 228f d53b d6b1 c9ba 6223 883a f5ce d2b8
00000020: 819b 0bbc e3c9 b4b5 cd7c 2a39 3949 b53c
00000030: d29b 40ba be54 aab5 3f53 713b 51a3 7dbc
00000040: 4706 ca3c 1539 283b b1f6 a3b4 2a5f 3237
00000050: 5b80 babb aafd 8039 2d31 3638 0687 b52c
00000060: 5ccc 3abc 5527 46bc 1068 dc3a 8752 be30
00000070: afd9 12b8 0b4f 943a 42db a5bc 6cb7 763a
00000080: 913c 3b3c ea18 0ab8 256e 01b6 f85a 0009
00000090: b6f0 643c c02f 01bd 4112 1b37 6242 803c
000000a0: 8ca7 c9b3 c044 0f35 b5a2 00bd 0eda 87ab
000000b0: 2155 a13c 9a30 1d3c bc6e 90b5 91b5 123c
000000c0: 8697 59bb af19 1c3c 152d 09ba f0d7 c2b8
000000d0: e6d3 4dba 7a02 14b2 3604 bfb8 d0f9 73bb
000000e0: 4667 98b3 81c8 18b7 ee57 99ba 4286 44b8
000000f0: 32ed 083d df16 583b efe3 a1b6 82a3 8d07
00000100: f8a1 ed39 0277 a0bc ef44 fcb9 844c 533c
00000110: 1305 8f37 6a26 2bba 073f 773b 9ec6 4131
00000120: 6518 b6b8 7c45 4b3c b55a 7fa7 370d 253c
00000130: 735d 70b2 4155 303c c0ee 42b8 84d4 bdbb
00000140: c2ff bbbc 8232 a23b 1985 263c 2cff 0bb7
00000150: 1a37 9cb8 160a f92c b302 8b3c b817 15b7
00000160: 412c 5035 2476 a233 4eb3 a33a 7253 76b1
00000170: dd65 be3b 8273 0c3b 6812 ae31 58e9 803c
00000180: aa4e ecb6 9ca4 6738 9e8d 0931 c560 03ba
00000190: 370e e23a e019 cc33 a9ce 20ab a981 05bd
000001a0: 56be 8eb4 0c37 483b f9c1 4c39 a2e5 213a
000001b0: 3b84 13bc 7ba3 e1bc 705e 0109 b41b 20b6
000001c0: a995 eab8 f4da b5af 79a3 1d07 48de bc3c
000001d0: 38d1 7ab1 6e96 873c 2ea9 3036 c405 83bb
000001e0: bd6c a708 f529 75b3 17a0 45ba 9b50 cdba
000001f0: 0c97 163b d2d0 a230 18f1 973b a1d1 9fb7
00000200: 922c 2e88 7c36 ec3a be65 ed39 aa3a 69b3
00000210: b7a1 593c d05d bbb0 3b30 82ba 5c80 b1bb
00000220: 4d71 2ab5 8fc3 5839 8965 96b8 5e70 35ba
00000230: cbf2 fc36 92af 5b3a 6b6d 90b7 2156 213c
00000240: 200a 1f2a 0ac2 09a8 8dfa c1ba 0e64 a72e
00000250: 358d 02ae 0588 36bd c067 253b ca59 bd87
00000260: 7e83 ba36 6c9d c0ba 3034 87bb ec5f 9a3c
00000270: 0147 0eb5 0565 bab3 2c34 30b8 e5bb 52b7
00000280: 373e 06b3 9ad5 c330 5bf9 0eba 85e1 a9b9
00000290: 35cf 94ba 8427 083c ed13 1489 0cab 0fba
000002a0: 2085 a928 c484 51b8 9a3b 8b3c cd51 33ac
000002b0: f5e5 43b3 453c 55b6 7b7e 03bc f6cf ac08
000002c0: 465d 703c 5d91 6c1b add4 df38 d75d 903c
000002d0: e517 4489 81e6 6eba 656a e4ba fefe 2e38
000002e0: 3707 48ba 9eae feaa 84d2 153c 788e 88b2
000002f0: 16ce 98b9 3495 fcb9 1e8b 4336 01b2 09bb
00000300: 6c85 4b3b 0e83 483c 6b15 4a3b 728f 8d3a
00000310: d816 8a2a 70e7 88ba c1ca c93b 2f3f 9436
00000320: 3419 d8ad d439 7fb8 523d a33c c62f 3fb5
00000330: 5b55 87ba 3976 9608 caf7 91b5 15db c4b8
00000340: 1939 8da7 fe97 54ba a667 42bc b276 56bb
00000350: 000a 833a fe1b bf2f 52cf beb3 f05f 0eba
00000360: 36bf caba c6a1 32bc fd13 60b2 34ff 2a3b
00000370: fe2b fc08 dc5a 3eb8 dc5e 7e3c 725d 4538
00000380: b197 80b9 5f23 f1bb 08ed 9eb9 4e38 6988
00000390: eb05 b33b 1115 8b3c d1ff b2bb 9adf 8a3c
000003a0: 29fa b28e 82e9 81b5 c5bc 233c bcc2 aeb6
000003b0: 6a3a 37bd 9284 923b 8480 a308 816b 38bb
000003c0: 5c71 9107 0ff8 6cb0 628a 6ebc 371f c43c
000003d0: ad93 de35 3e8a 7bb8 e66d 62a1 3f20 9aa4
000003e0: 8ac2 18a7 3e50 a009 f845 97b3 f090 8b1b
000003f0: 0d65 72b8 71da 873c 126e a2b7 fd61 251b

model_1/dense_3/BiasAdd/ReadVariableOp:0 f4 [384]
-0.017549183 -0.0026400755 -0.0054100174 0.005584402 -0.0100465035 0.009621185 -0.0024435956 -0.0036125435
-0.007197041 -0.010570386 -0.01022926 0.008724555 -0.0177268 -0.014677488 0.004148228 -0.006612042
-0.0030886042 -0.021335457 -0.019695317 -0.024343055 0.001215757 -0.005354985 -0.003088682 -0.029011238
-0.010168403 -0.01421618 0.0012418716 -0.0077570877 -0.0014040611 -0.015568504 0.0005722569 0.006062879
0.0041857706 -0.010005075 -0.0054023904 -0.0020617135 0.023131661 0.026837138 -0.013421096 0.009333944
-0.01179531 -0.014464345 -0.00066375925 -0.011463818 0.009280844 0.009501476 -0.017414814 0.013131612
0.0002896438 0.0055145132 0.004955157 -0.00073435757 -0.0034607267 -0.007952679 0.00020500082 -0.003952289
-0.012958528 -0.009427289 -0.028352825 -0.011455288 0.021292396 0.014345172 -0.029897021 -0.004616901
0.015911715 0.013624058 -0.0035692917 -0.001021154 -0.009103059 -0.009641545 -0.018316986 -0.0110746445
-0.039543953 0.0022930657 -0.007288618 -0.025372064 -0.0117178075 -0.03110911 -0.009368704 0.0214199
0.01737607 -0.0012389533 0.023162147 -0.010520848 -0.012907828 -0.007671629 0.030501043 -0.0011808686
-0.014685341 -0.018516947 -0.012187438 -0.00716181 -0.0057068835 -0.0146201085 -0.0047706775 0.016567139
-0.005924466 -0.015039228 -0.014810554 -0.014837119 -0.009180044 -0.006436923 -0.015733022 0.0012492967
-0.009684789 -0.014571067 -0.0072290096 0.0036389634 -0.012062422 0.0023138318 -0.005470647 -0.00036851983
-0.013364165 -0.0139217125 -0.0069460506 0.02302465 -0.0011959807 0.0016430768 -0.0465853 0.0060218894
-0.015148299 -0.01884455 0.0026988753 0.015611433 -0.0017600938 -0.008139211 -0.030598778 -0.007974295
-0.008110637 -0.038645905 -0.0054347054 -0.007923866 -0.012260488 -0.011731181 -0.0011688169 0.021419471
-0.00833572 -0.05006989 -0.003432818 -0.018911023 -0.010321445 -0.006748716 -0.005916949 0.034056444
-0.009197048 -0.0041191056 -0.0044104797 -0.010858163 -0.004594196 -3.3620454e-06 -0.021479292 -0.0055001867
-0.014705861 0.0048001152 0.0085824765 0.012936383 -0.006672662 -0.008394388 -0.004569137 -0.0028634032
-0.013447836 -0.014369795 0.003298886 -0.00791458 -0.0014319031 -0.013943466 -0.008926285 -0.005259738
-0.004079197 -0.008189331 0.0038209232 -0.0072184103 -0.0125039015 -0.011838882 0.005883489 -0.0071989563
0.011138273 -0.011040785 -0.021814315 0.0029428059 -0.013285933 -0.00061967067 0.006581993 -0.0046009123
0.001718035 -0.008682168 0.007525074 -0.013376885 -0.012308914 -0.0029043027 -0.007894697 -0.009708331
0.0040269294 -0.011255053 -0.010614641 -0.06910119 -0.010625622 -0.00041291254 -0.0012530051 -0.0077350177
-0.0019447566 -0.01097743 0.011344975 -0.0043469253 -0.0066709034 -0.0055742636 -0.003251684 -0.01023102
-0.015815841 0.008139814 0.04043712 -0.00977484 -0.018171279 -0.011053709 -0.008700012 -0.011534163
-0.017568467 -0.014237604 -0.007811641 0.01297667 -0.0033251138 -0.009532884 -0.004751023 -0.01972447
-0.022631478 0.02009137 -0.006442147 -0.011279746 0.023690552 0.023930117 -0.011464133 -0.009326587
-0.0030145135 -0.0026958475 0.007977431 -0.012097297 0.01015245 -0.011205876 -0.0072089494 -0.009751814
-0.006724564 -0.04441988 0.006865077 0.02284804 -0.009776447 -0.01223212 -0.002087096 -0.007145478
-0.0028464687 -0.014660814 -0.004059792 -0.013577038 -0.018046161 -0.00942258 -0.01565131 -0.029430818
00000000: 4ec3 8fbc 1e05 2dbb 8446 b1bb 5cfd b63b
00000010: 179a 24bc 2da2 1d3c bb24 20bb 6cc0 6cbb
00000020: 28d5 ebbb 6a2f 2dbc a098 27bc 70f1 0e3c
00000030: cb37 91bc d979 70bc dced 873b d4a9 d8bb
00000040: 2e6a 4abb b2c7 aebc 1358 a1bc 166b c7bc
00000050: 095a 9f3a df78 afbb 7c6b 4abb faa8 edbc
00000060: 6099 26bc fbea 68bc 4cc6 a23a 2b2f febb
00000070: 7908 b8ba 0a13 7fbc 8303 163a 1eab c63b
00000080: ca28 893b 53ec 23bc 8906 b1bb d01d 07bb
00000090: 9c7e bd3c 8fd9 db3c 28e4 5bbc 66ed 183c
000000a0: 1e41 41bc dcfb 6cbc 2100 2eba bdd2 3bbc
000000b0: ae0e 183c 14ac 1b3c 83a9 8ebc f925 573c
000000c0: 55db 9739 17b3 b43b df5e a23b e781 40ba
000000d0: 5ccd 62bb f44b 02bc 7df5 5639 3482 81bb
000000e0: 0150 54bc ea74 1abc 2f44 e8bc f6ae 3bbc
000000f0: 646d ae3c 0308 6b3c 99ea f4bc 5f49 97bb
00000100: 4959 823c 7137 5f3c c7ea 69bb 3ed8 85ba
00000110: ff24 15bc 92f7 1dbc 810d 96bc 6d72 35bc
00000120: d7f8 21bd 4247 163b 5cd5 eebb 13d9 cfbc
00000130: 0cfc 3fbc 88d8 febc 317f 19bc c978 af3c
00000140: 4358 8e3c 6064 a2ba 8bbe bd3c a35f 2cbc
00000150: 5b7b 53bc 4a62 fbbb 53dd f93c 60c7 9aba
00000160: c99a 70bc dab0 97bc d2ad 47bc 9ead eabb
00000170: cf00 bbbb 2e89 6fbc 5853 9cbb cfb7 873c
00000180: 0622 c2bb 1867 76bc f7a7 72bc 6317 73bc
00000190: e567 16bc d3ec d2bb 8ae2 80bc 71bf a33a
000001a0: f3ac 1ebc 7cbb 6ebc 54e1 ecbb ad7b 6e3b
000001b0: 77a1 45bc a8a3 173b 1d43 b3bb e535 c1b9
000001c0: 5ff5 5abc e517 64bc b29b e3bb 319e bc3c
000001d0: 74c2 9cba 825c d73a 3ad0 3ebd 4553 c53b
000001e0: 9230 78bc e35f 9abc 9ddf 303b 19c7 7f3c
000001f0: f3b2 e6ba 535a 05bc 4aaa fabc 9ea6 02bc
00000200: 7ae2 04bc 2b4b 1ebd 9d15 b2bb 1ad3 01bc
00000210: 37e0 48bc 2434 40bc fd32 99ba e377 af3c
00000220: 8b92 08bc 1616 4dbd 21f9 60bb 4aeb 9abc
00000230: 471b 29bc 5524 ddbb f7e2 c1bb c57e 0b3d
00000240: 37af 16bc 90f9 86bb c985 90bb 70e6 31bc
00000250: e98a 96bb 809f 61b6 57f5 afbc e93a b4bb
00000260: daf0 70bc 494a 9d3b 849d 0c3c 1ff3 533c
00000270: 59a6 dabb 9d88 09bc b3b8 95bb efa7 3bbb
00000280: 5054 5cbc 4a6f 6bbc 1f32 583b 28ac 01bc
00000290: b2ae bbba 2373 64bc 8e3f 12bc e159 acbb
000002a0: c9aa 85bb 8b2c 06bc 7468 7a3b 6a88 ecbb
000002b0: 2add 4cbc dff7 41bc 48ca c03b 39e5 ebbb
000002c0: 4e7d 363c 69e4 34bc efb3 b2bc 17dc 403b
000002d0: 3ead 59bc 6571 22ba c2ad d73b 40c3 96bb
000002e0: b02f e13a a73f 0ebc e594 f63b b92a 5bbc
000002f0: 54ab 49bc 1d56 3ebb c258 01bc b10f 1fbc
00000300: 55f4 833b 1d67 38bc 08e9 2dbc ed84 8dbd
00000310: 1717 2ebc 2f7c d8b9 e03b a4ba 0876 fdbb
00000320: 34e7 feba aeda 33bc 46e0 393c a770 8ebb
00000330: 9897 dabb 50a8 b6bb 341a 55bb 02a0 27bc
00000340: 3990 81bc db5c 053c 65a1 253d a726 20bc
00000350: efdb 94bc 9e1a 35bc 7f8a 0ebc c9f9 3cbc
00000360: bfeb 8fbc d744 69bc cbf8 ffbb 199c 543c
00000370: 27ea 59bb d02f 1cbc 78ae 9bbb 3695 a1bc
00000380: a665 b9bc a896 a43c a518 d3bb afce 38bc
00000390: b012 c23c 1809 c43c 0fd4 3bbc 8bce 18bc
000003a0: 258f 45bb d1ac 30bb c5b3 023c be33 46bc
000003b0: 7656 263c da98 37bc 0d39 ecbb 13c6 1fbc
000003c0: bb59 dcbb 9ff1 35bd 71f4 e03b d02b bb3c
000003d0: 642d 20bc 3b69 48bc a9c7 08bb 9d24 eabb
000003e0: d28b 3abb e933 70bc 0108 85bb 3a72 5ebc
000003f0: 8bd5 93bc 2a61 1abc 2d37 80bc e618 f1bc

model_1/conv2d_9/Conv2D/ReadVariableOp:0 f4 [64, 32, 3, 3]
0.03570888 -0.07251578 -0.08419151 0.06569914 0.06779557 -0.061547056 0.03816487 -0.027286954
0.03355711 -0.0072974786 -0.018660018 0.0145326825 -0.072090015 -0.06632168 0.02097618 -0.06580165
-0.009344032 -0.063062325 0.034448523 0.023797374 -0.0668923 -0.09375822 -0.10685198 -0.0753508
-0.07976148 -0.05552979 -0.022572953 -0.05237383 -0.037398722 0.025546076 0.035875298 -0.04336819
0.06907918 0.065138675 0.003703187 0.049082637 -0.013864972 -0.03755048 -0.07501712 0.076307096
0.08909261 0.019644588 -0.024623137 0.098306395 0.07063369 0.0068490775 -0.052500404 0.04889188
0.08265151 0.023620965 0.07282862 0.015961565 -0.060260072 -0.055219516 0.011590293 0.07471484
0.09606996 0.00399894 0.07664794 -0.032351892 -0.11653267 -0.026948284 -0.08860805 0.063258864
-0.06510606 0.06842338 0.02834105 0.059836112 0.059726022 -0.060567368 -0.023512412 0.020786317
0.032761212 0.05185719 -0.02354794 0.053527467 0.05412931 -0.08424863 0.035075307 -0.021481048
-0.0006228191 -0.08906827 -0.061944656 -0.0780254 -0.060883075 -0.021216892 0.006781054 -0.09553554
-0.068022236 -0.13566504 0.04734721 0.066408634 -0.01063677 0.05459495 0.07947426 0.03144326
-0.038594197 0.037101503 -0.040801756 -0.027619002 -0.010686925 0.006901928 0.026009435 -0.0020683513
-0.03148787 -0.08147378 -0.13979723 -0.11293141 -0.045199703 0.11483055 -0.05246022 0.081913434
0.06660818 0.042574406 -0.056269918 -0.06874783 -0.036456045 -0.054082546 -0.063308164 0.0018906415
0.035497494 -0.06562693 0.026221335 -0.033436626 0.017729124 0.06811739 0.0043922365 -0.0071610822
-0.019671815 -0.06993758 -0.053414978 -0.011588556 0.07217739 0.006182934 -0.030734057 0.01074804
0.06737362 -0.04581009 0.04467032 -0.008134901 -0.0022769081 -0.022624275 0.006578059 -0.03172543
-0.06300917 0.026010862 -0.042521164 -0.01034109 -0.0818198 -0.07213256 0.027803639 0.067560226
0.03400078 -0.071323544 0.010947139 -0.085176826 -0.095945224 -0.10568659 -0.104623534 0.036244363
0.04055266 0.06119584 0.037537407 -0.07569697 -0.06436846 0.010687109 0.01594672 0.0020424596
0.035744395 -0.070664704 -0.10285081 0.051560152 -0.070341736 0.005009642 -0.04370232 0.0031241449
-0.06349373 -0.027557304 -0.06439092 -0.060139704 -0.006104341 0.019089907 0.02854399 0.037032805
-0.05329881 -0.04924249 0.082831904 -0.017696653 -0.024269136 -0.028022645 -0.07430991 0.076054655
0.06029545 -0.007687935 -0.06640998 -0.0645857 0.013096776 -0.05571005 -0.00996138 -0.012771392
0.0028281794 0.06223786 -0.051688883 0.049372926 0.08669959 0.052885283 -0.028428733 -0.032283045
0.04999325 0.020575609 -0.062260743 -0.0956827 -0.037087597 0.07705556 0.10318261 -0.04541133
-0.04139629 -0.015614382 -0.078212105 0.017097613 0.05631959 0.030296607 0.04344632 -0.041458674
0.057075124 0.08083663 0.028549885 0.0756867 0.105875626 0.11581757 0.05868778 -0.026574794
-0.05857245 -0.040921275 -0.014153432 0.0077589 0.016223658 0.05227709 -0.020435262 -0.027223945
0.016831541 0.008317881 0.027783059 -0.092525154 0.014250273 -0.06176807 -0.07013151 -0.092595875
0.022446357 -0.009114517 0.049826372 -0.078677855 -0.08707788 0.08916419 -0.07629358 0.044214018
00000000: 7943 123d 2783 94bd 996c acbd 458d 863d
00000010: 67d8 8a3d c418 7cbd c452 1c3d e488 dfbc
00000020: 2e73 093d b01f efbb e5dc 98bc 7d1a 6e3c
00000030: eea3 93bd a9d3 87bd 3dd6 ab3c 04c3 86bd
00000040: b617 19bc d226 81bd e519 0d3d b6f2 c23c
00000050: d5fe 88bd 4f04 c0bd 36d5 dabd 8551 9abd
00000060: fd59 a3bd 3573 63bd eaea b8bc f185 56bd
00000070: 672f 19bd 0146 d13c faf1 123d d8a2 31bd
00000080: 6379 8d3d 6d67 853d 2bb1 723b e00a 493d
00000090: e829 63bc 88ce 19bd 93a2 99bd e546 9c3d
000000a0: 3076 b63d b0ed a03c 76b6 c9bc dd54 c93d
000000b0: 65a8 903d 3a6e e03b aa0a 57bd da42 483d
000000c0: 3245 a93d c180 c13c 2c27 953d d4c1 823c
000000d0: 44d3 76bd dc2d 62bd 36e5 3d3c 1804 993d
000000e0: 54c0 c43d 8a09 833b 98f9 9c3d 6b83 04bd
000000f0: aea8 eebd a6c2 dcbc 2378 b5bd dd8d 813d
00000100: 5356 85bd 8f21 8c3d 7d2b e83c b616 753d
00000110: 46a3 743d 7d15 78bd 1a9d c0bc 1148 aa3c
00000120: 9f30 063d 3468 543d 9ce7 c0bc 9e3f 5b3d
00000130: b2b6 5d3d 8c8a acbd 20ab 0f3d 06f9 afbc
00000140: af44 23ba 6d69 b6bd aeb9 7dbd c8cb 9fbd
00000150: 8860 79bd 0ccf adbc 9b33 de3b 23a8 c3bd
00000160: 3e4f 8bbd c7eb 0abe 26ef 413d 4001 883d
00000170: d945 2ebc f49e 5f3d 67c3 a23d a6ca 003d
00000180: f314 1ebd bff7 173d be1f 27bd 3f41 e2bc
00000190: 3618 2fbc 9229 e23b bd11 d53c 2d8d 07bb
000001a0: 6df9 00bd badb a6bd 0127 0fbe 9548 e7bd
000001b0: 5323 39bd 482c eb3d 87e0 56bd 3bc2 a73d
000001c0: df69 883d 8062 2e3d 497b 66bd aacb 8cbd
000001d0: ef52 15bd a985 5dbd b6a7 81bd 67cf f73a
000001e0: d265 113d 6967 86bd 20ce d63c d8f4 08bd
000001f0: ab3c 913c 2181 8b3d c0ec 8f3b 83a7 eabb
00000200: c926 a1bc 6f3b 8fbd aac9 5abd eddd 3dbc
00000210: bdd1 933d 369a ca3b fdc5 fbbc 8c18 303c
00000220: 2efb 893d 5ca3 3bbd 3af8 363d 3f48 05bc
00000230: 2e38 15bb 8b56 b9bc c28c d73b 86f2 01bd
00000240: f40a 81bd bb14 d53c ac2a 2ebd ad6d 29bc
00000250: 2491 a7bd 3cba 93bd 75c4 e33c 045d 8a3d
00000260: 6744 0b3d 1412 92bd a15b 333c 3071 aebd
00000270: ee7e c4bd 3672 d8bd dd44 d6bd f874 143d
00000280: 8c1a 263d 7da8 7a3d d3c0 193d 0307 9bbd
00000290: 9cd3 83bd fc18 2f3c b2a2 823c c9da 053b
000002a0: b768 123d a8b8 90bd 72a3 d2bd bd30 533d
000002b0: 540f 90bd ec27 a43b 3401 33bd 74be 4c3b
000002c0: 0009 82bd dbbf e1bc 63df 83bd 0d55 76bd
000002d0: ec06 c8bb 7062 9c3c 16d5 e93c b6af 173d
000002e0: da4f 5abd 7eb2 49bd c6a3 a93d 92f8 90bc
000002f0: 11d0 c6bc bf8f e5bc cb2f 98bd 8bc2 9b3d
00000300: 5df8 763d 13eb fbbb f501 88bd 8245 84bd
00000310: dc93 563c 3930 64bd 0e35 23bc 1a3f 51bc
00000320: fa58 393b 20ed 7e3d b9b7 53bd 443b 4a3d
00000330: 8e8f b13d 3d9e 583d 60e3 e8bc 3a3b 04bd
00000340: b9c5 4c3d 2e8e a83c 1f05 7fbd 4bf5 c3bd
00000350: 2ae9 17bd 4ecf 9d3d 6751 d33d 3b01 3abd
00000360: 288f 29bd 77d3 7fbc ab2d a0bd 4b10 8c3c
00000370: 5faf 663d 9730 f83c c5f4 313d 92d0 29bd
00000380: 9bc7 693d ad8d a53d 73e1 e93c a101 9b3d
00000390: 52d5 d83d c331 ed3d 9962 703d 62b3 d9bc
000003a0: aae9 6fbd 119d 27bd cce3 67bc 5f3e fe3b
000003b0: 7ae7 843c 8020 563d da67 a7bc c004 dfbc
000003c0: 4de2 893c b947 083c 4c99 e33c d47d bdbd
000003d0: fa79 693c 8400 7dbd 1ca1 8fbd e8a2 bdbd
000003e0: 6ce1 b73c 0e55 15bc bd16 4c3d db21 a1bd
000003f0: e355 b2bd b79b b63d cf3f 9cbd c219 353d

model_1/conv2d_9/BiasAdd/ReadVariableOp:0 f4 [64]
-0.015670005 -0.015529902 0.029806087 0.016033491 -0.09192456 -0.0058399993 0.03150536 0.012837608
-0.0374667 0.010889989 0.007812605 -0.022078672 0.00012506859 -0.008199452 -0.008036959 -0.007940105
-0.078493215 -0.0035020744 -0.013054371 0.01600873 0.008595725 0.021055838 -0.016722947 -0.00022536995
-0.013486792 -0.025593465 0.03111115 -0.0072311857 0.019186221 -0.016406314 -0.06717511 -0.030035513
-0.010460761 -0.023689473 0.008237477 0.00053990947 -0.041788213 -0.019496439 -0.010407982 -0.12144371
-0.021983419 -0.007942902 0.022288352 -0.050283708 0.02175515 -0.038366266 0.042606495 0.016789988
-7.270848e-05 -0.07478298 -0.007233985 -0.053008802 -0.06592433 -0.04917275 -0.005105018 -0.016023349
-0.01482955 -0.022226432 -0.06198878 0.029396215 0.01336855 0.030745208 0.029088935 0.004974259
00000000: 625e 80bc 2171 7ebc e52b f43c ab58 833c
00000010: f242 bcbd 775d bfbb c40b 013d d554 523c
00000020: af76 19bd ed6b 323c 7100 003c 55de b4bc
00000030: d824 0339 ff56 06bc 73ad 03bc 3717 02bc
00000040: 0dc1 a0bd 0f83 65bb 00e2 55bc bd24 833c
00000050: 15d5 0c3c 4b7d ac3c 90fe 88bc 4951 6cb9
00000060: b5f7 5cbc 63a9 d1bc cfdc fe3c 95f3 ecbb
00000070: 6c2c 9d3c 8966 86bc 1b93 89bd 090d f6bc
00000080: 9d63 2bbc 6d10 c2bc 7cf6 063c b688 0d3a
00000090: 1e2a 2bbd ffb6 9fbc 3e86 2abc 7bb7 f8bd
000000a0: 9216 b4bc f222 02bc 1096 b63c 4af6 4dbd
000000b0: db37 b23c f225 1dbd 2684 2e3d 288b 893c
000000c0: 117b 98b8 d227 99bd 100b edbb c21f 59bd
000000d0: 5603 87bd 5e69 49bd ff47 a7bb 6643 83bc
000000e0: a4f7 72bc 3514 b6bc f2e7 7dbd 55d0 f03c
000000f0: c307 5b3c 60dd fb3c eb4b ee3c 1cff a23b

model_1/conv2d_8/Conv2D/ReadVariableOp:0 f4 [32, 1, 3, 3]
-0.10909032 -0.041599046 0.112207554 0.038847215 0.043194342 0.08564952 0.08909208 0.17823403
0.09355614 0.14584994 0.0049467413 -0.082309894 0.05108812 0.014328188 -0.06201751 -0.036769975
0.09255507 0.02443249 0.06826853 -0.0067074755 0.064336635 0.037350573 -0.033739377 0.06668388
-0.004479544 -0.0743095 0.090146884 -0.09910628 0.12131874 -0.08391559 0.09166748 -0.09761529
-0.1534412 -0.04979792 0.022737524 -0.09500111 -0.033802234 0.009051167 -0.05039183 -0.0021836911
-0.11915745 -0.091862716 0.010873904 -0.076034084 -0.03762996 0.13815682 -0.008971958 -0.11269184
0.081189275 -0.020144572 -0.0107069425 0.090852015 0.029030506 0.008629957 0.05281113 0.110359415
-0.078432165 -0.053986583 0.14884613 -0.044895288 0.0010570849 -0.040713638 -0.010872097 -0.04259229
-0.054716308 -0.06853608 -0.1656543 -0.036586367 -0.12183423 -0.16702868 0.00369334 0.022888945
0.032708153 0.1469863 0.11422148 -0.09840844 0.087406695 0.03324909 -0.08066661 -0.025878886
0.029941736 0.078130335 0.047391023 0.067722306 -0.077051744 0.06557886 -0.061321512 -0.13303801
-0.055703387 0.056935232 -0.04337797 0.052297696 0.016389793 0.012911239 -0.0136432275 0.03991548
0.12282699 0.019094897 0.0873535 0.107545406 -0.0138893435 0.034178384 0.11489666 -0.0784684
0.05808004 -0.12730996 -0.021143379 -0.113287635 -0.13825648 0.13215646 0.07687702 0.029330123
0.1236321 -0.027268205 -0.13218431 0.031165931 -0.0010248555 0.12441879 0.105559714 -0.09326524
-0.022054613 -0.11266428 0.0467235 0.14699683 -0.022724342 0.07482566 0.037987333 -0.11310649
-0.06943329 0.025962593 -0.15989992 0.050995138 0.054432116 -0.057818044 -0.035077374 -0.011394898
0.09233974 0.12082749 0.13458876 0.090708934 -0.11975711 -0.114867695 -0.02141852 0.055886384
-0.16154248 0.051798347 0.0030703314 0.023509879 -0.010500974 -0.14593361 0.015121124 -0.094839536
0.09035411 0.03554134 -0.04393633 -0.102301165 -0.052411154 0.14172125 -0.05680083 0.01562171
0.0408085 0.0019444441 0.031983834 -0.10201511 0.11429251 0.04397593 -0.008941044 -0.031200374
0.007811721 0.063000016 -0.13325639 0.11223358 0.08350623 0.113325395 -0.07215127 0.12685016
0.09038614 0.07744666 -0.088931926 0.14029197 -0.039925408 -0.052651167 0.09424589 0.0114181815
0.07490726 0.015608856 0.1356129 0.04206198 0.069565736 0.10114637 -0.027868161 0.12205697
0.11279592 -0.08001988 -0.007899312 -0.054494288 -0.11213594 0.15020421 -0.11080609 -0.1133896
0.061827 0.11942919 0.031657282 0.011093918 0.08569153 0.050898954 0.021544175 -0.124904245
-0.0048160995 -0.15480982 0.12782921 -0.0052103503 -0.0063256314 0.11291244 -0.116035014 -0.055684242
-0.06368187 -0.044442758 0.033674426 -0.12387105 0.13456295 0.11319137 0.05220354 0.10935879
0.040912878 -0.051930655 -0.043559138 0.1454793 -0.14563264 0.05294608 0.033594273 0.035612226
-0.012979153 0.1184687 -0.02246391 0.072565734 -0.06669126 -0.1398102 -0.05461472 -0.17292659
-0.018266141 0.007410807 -0.009999979 0.051517833 0.021566132 0.07480776 0.09532297 -0.07087495
0.09944672 0.0051006074 0.014125562 -0.0027385794 0.038641397 0.070788376 -0.0994542 0.034808036
00000000: bf6a dfbd c363 2abd 13cd e53d 421e 1f3d
00000010: 8dec 303d 0469 af3d e975 b63d fb82 363e
00000020: 5d9a bf3d b059 153e 4618 a23b 1792 a8bd
00000030: c741 513d c7c0 6a3c 1306 7ebd 1d9c 16bd
00000040: 838d bd3d a526 c83c 5fd0 8b3d 62ca dbbb
00000050: edc2 833d eafc 183d 4d32 0abd 8f91 883d
00000060: 23c9 92bb 942f 98bd ee9e b83d 3cf8 cabd
00000070: f675 f83d f0db abbd 29bc bb3d 86ea c7bd
00000080: b11f 1dbe e7f8 4bbd 0b44 ba3c f18f c2bd
00000090: 3674 0abd 594b 143c aa67 4ebd 421c 0fbb
000000a0: d208 f4bd 8522 bcbd 7628 323c c2b7 9bbd
000000b0: df21 1abd fb78 0d3e 1fff 12bc fbca e6bd
000000c0: 9046 a63d 3b06 a5bc 2c6c 2fbc 9f10 ba3d
000000d0: 62d1 ed3c aa64 0d3c 7c50 583d 1e04 e23d
000000e0: 0ba1 a0bd 0921 5dbd 1f6b 183e 1fe4 37bd
000000f0: e28d 8a3a 58c3 26bd e120 32bc 4175 2ebd
00000100: 351e 60bd a55c 8cbd 48a1 29be 96db 15bd
00000110: 3a84 f9bd 9109 2bbe f70b 723b 9981 bb3c
00000120: fcf8 053d 9483 163e f4ec e93d 5d8a c9bd
00000130: 4802 b33d 3330 083d 8934 a5bd f5ff d3bc
00000140: 5f48 f53c cc02 a03d 171d 423d feb1 8a3d
00000150: 4ecd 9dbd 364e 863d 442c 7bbd 1e3b 08be
00000160: 3c29 64bd eb34 693d 19ad 31bd 1c36 563d
00000170: e343 863c a989 533c d887 5fbc 6a7e 233d
00000180: b88c fb3d e76c 9c3c 64e6 b23d c440 dc3d
00000190: 2190 63bc a2fe 0b3d f14e eb3d 0ab4 a0bd
000001a0: 56e5 6d3d 8b5d 02be e134 adbc 5903 e8bd
000001b0: 1b93 0dbe 0654 073e b371 9d3d ba45 f03c
000001c0: d432 fd3d 9261 dfbc 535b 07be b24f ff3c
000001d0: 7254 86ba 47cf fe3d b12f d83d d901 bfbd
000001e0: e0ab b4bc 88bc e6bd 2461 3f3d 5686 163e
000001f0: 6628 babc 323e 993d 9b98 1b3d 60a4 e7bd
00000200: 0a33 8ebd 81af d43c cebc 23be 47e0 503d
00000210: 36f4 5e3d 9dd2 6cbd 4bad 0fbd abb1 3abc
00000220: 9e1c bd3d 6774 f73d a3d1 093e 9bc5 b93d
00000230: 3743 f5bd c13f ebbd e475 afbc 1fe9 643d
00000240: 646b 25be 812a 543d 9d37 493b ca97 c03c
00000250: 470c 2cbc 9f6f 15be 97be 773c 3b3b c2bd
00000260: 930b b93d cc93 113d 95f6 33bd 4683 d1bd
00000270: 14ad 56bd 601f 113e fda7 68bd 33f2 7f3c
00000280: d026 273d b8dc fe3a 7b01 033d 4ced d0bd
00000290: 3112 ea3d 1b20 343d 757d 12bc ed97 ffbc
000002a0: 77f9 ff3b 2706 813d 5d74 08be b8da e53d
000002b0: 5005 ab3d 2517 e83d 0cc4 93bd 02e5 013e
000002c0: 5e1c b93d 5b9c 9e3d f121 b6bd b3a8 0f3e
000002d0: d388 23bd c0a8 57bd fd03 c13d 5313 3b3c
000002e0: fa68 993d 4abc 7f3c 1cde 0a3e 2f49 2c3d
000002f0: 7b78 8e3d d425 cf3d c54b e4bc 01f9 f93d
00000300: 8c01 e73d 76e1 a3bd 1e6c 01bc 6735 5fbd
00000310: 87a7 e5bd 22cf 193e 4eee e2bd ce38 e8bd
00000320: 4f3e 7d3d 4b97 f43d 11ab 013d 44c3 353c
00000330: 0a7f af3d 6c7b 503d 697d b03c cccd ffbd
00000340: 5fd0 9dbb 7786 1ebe a9e5 023e 96bb aabb
00000350: 3e47 cfbb a33e e73d c4a3 edbd 2915 64bd
00000360: a46b 82bd 9c09 36bd 32ee 093d 1bb0 fdbd
00000370: dfca 093e e1d0 e73d 61d3 553d 80f7 df3d
00000380: 4394 273d 3db5 54bd 116b 32bd 87f8 143e
00000390: b920 15be fddd 583d 269a 093d 20de 113d
000003a0: 83a6 54bc b89f f23d 3c06 b8bc 589d 943d
000003b0: 6d95 88bd 682a 0fbe afb3 5fbd ab13 31be
000003c0: e0a2 95bc 5bd6 f23b f4d6 23bc 5d04 533d
000003d0: 75ab b03c d034 993d b038 c33d e326 91bd
000003e0: b9aa cb3d ff22 a73b e76e 673c bd79 33bb
000003f0: 7146 1e3d 7ff9 903d a5ae cbbd df92 0e3d

model_1/conv2d_8/BiasAdd/ReadVariableOp:0 f4 [32]
-0.04231026 -0.08366095 -0.08036446 -0.0022455552 -0.0151984915 -0.0035798217 -0.010413816 -0.025252521
0.026628654 0.03768689 0.028503096 0.024145955 -0.011376218 -0.035113834 0.0059475037 -0.009021317
0.01911256 0.033921245 0.0029658026 -0.080865696 -0.007126219 -0.047968995 -0.02159415 0.010321734
-0.06387204 0.008644228 -0.0017738517 -0.08743643 -0.0065355203 0.0492639 -0.04536823 -0.08558969
00000000: 864d 2dbd 6f56 abbd 1f96 a4bd 2a2a 13bb
00000010: 1803 79bc 719b 6abb b69e 2abc 60de cebc
00000020: 5624 da3c 925d 1a3d 537f e93c bdcd c53c
00000030: 5163 3abc 86d3 0fbd 47e3 c23b 25ce 13bc
00000040: f291 9c3c 01f1 0a3d e95d 423b ea9c a5bd
00000050: 0f83 e9bb 237b 44bd 37e6 b0bc 7d1c 293c
00000060: 58cf 82bd 85a0 0d3c 9680 e8ba df11 b3bd
00000070: eb27 d6bb f1c8 493d 0ad4 39bd a649 afbd
